NLayerNeuralNetwork/binary_model_W1.npy (npy, 262272 bytes, 1 tensors)

array f4 [1024, 64]
00000000: 97d6 1bbc 4f50 4ebd 4d7c b33c 67fd babc
00000010: 5aa7 863a fa58 b43c 1dd6 29bd cb50 143d
00000020: a93b 393b b8da 2a3c 36f4 9434 04fb 623c
00000030: e058 a1ba f887 643d e5cc 883b e7d1 033d
00000040: e79c 8a3a f2db 41bd e7f5 a3bc 87d3 a6bc
00000050: 37a3 393c 8270 e6bc d1e3 32bd 0ecd f1bc
00000060: 9c12 1ebd d042 eb3c fe7a 843d c15b 2b3c
00000070: 90f5 0bba 4774 2abd 6046 053c e73b 7ebc
00000080: 71ce 85bb 3024 54bc d788 30bd 5127 49bd
00000090: 20d7 213c 5b13 babb de0e 2a3a 0f76 bf3c
000000a0: 1715 463c 772b 43bd 2045 2f34 529d a834
000000b0: 1153 27bc ca3a 353d 540b 923b cc63 3cbd
000000c0: 46b0 273c f079 ffbb e06a 643c 11ad 07bd
000000d0: 22ea 0fbc 2d7d 413c c9b7 fcba 6310 03bd
000000e0: 8bb9 2fbc 387b d13b e466 5d3c 7bce 47bd
000000f0: 1adb 3fbb c201 b93a e780 80bc 5cd0 1bbc
00000100: 28f9 92bc 60be 31bd 8f92 ff3b 0849 95bc
00000110: 8e5c 4abc ce8a e43b 1f6a dabc 9376 933c
00000120: d549 493c d201 ff3c cf46 3e35 4880 3b39
00000130: e025 56bc ced3 bf3c e80f 2dbc 94af 943c
00000140: 3fff a43b 4e50 f3bc 988f b5bc f03f 78bb
00000150: 53a2 913b 58b6 383c c8b9 fcbc e1c8 09bb
00000160: e328 c2bc 50fd 153c 2ac5 443d 0ba8 293d
00000170: 9942 f83a 7f19 3abc d97d 9bba 50ac 84bc
00000180: 0104 733c ea51 b8bb 37be fabc 7268 d5bc
00000190: c449 343c ede1 c3bb 412c ac3b a393 7b3c
000001a0: 6220 653b 3a23 82bc 0754 5ab4 4fbb ebb4
000001b0: 274f a3bc 251c ca3c eae1 91bc 5c76 f2bc
000001c0: 6039 8c3c 9279 91bc d245 2b3c c495 8abc
000001d0: a0b5 a9bc af4b 413c 818e 74bc d956 c2bb
000001e0: 466e 893b b924 c23c 5633 263c 00e6 a3bc
000001f0: f8e5 7e3c 9c1c 6abc 72c4 ddbb 6aa4 7ebc
00000200: b6dc 45bc 1620 06bd 1cb0 9fbc 4062 91bc
00000210: be8d bd3a 5cc7 c5ba d78d 93bc 5fe1 983c
00000220: fb8c 3b3c ed43 c63c 8c44 7233 c581 b63b
00000230: 6ca9 b13a 525d 643c 1497 643b 90ee 88b8
00000240: 8fba 0fbb 3f9f a6bc 4b02 9ebc 0a31 cd3a
00000250: 7b3e a8bb 3e54 643c 6c88 e4bc cdb2 d9bb
00000260: 89ed 9abc 9d9f 4c3c 85f7 5c3d 951f 0e3d
00000270: bd60 7dbc 1a30 79bc 7147 863b 1fcd e1bb
00000280: 27b3 8a3c 1437 2abc dae5 1ebd 4563 b3bc
00000290: 9b1f 703c e96d e9bb 893d 2c3c 7a19 6e3c
000002a0: 2296 eeb9 6bec 8cbc 38ca 93b4 5242 3333
000002b0: 235d a7bc 81b5 df3b d19a 46bb af7a 9dbc
000002c0: 2947 a53a 6f78 45bb 4d6a a13c c3b1 03bd
000002d0: e361 2dbb 6ad9 c83b ebc4 bcbc 026e 62bc
000002e0: 7f06 a6bc 4931 643c 16eb 9e3b 0d7b 6cbc
000002f0: 93cb 783c 6557 9f3b 9c0e 67bc efb7 32bc
00000300: 0a6f 9ebc 376d 44bc 7366 32bd dd96 a93a
00000310: ef8c a8ba 2873 dabb 5b99 6d3b dbb8 903c
00000320: a5fb 3c3b 52d2 813c 9982 b233 51f4 583b
00000330: 8877 f5ba 9775 313b 2a2e e93b 9f51 f73b
00000340: 1d3f d23b a076 07bc 56a6 93bb b55d c83b
00000350: 91ea 91bc 2e35 bb3b 677f 89bc eea8 9d3b
00000360: 29ca 0bbc e147 babb a3a4 343d 3980 653a
00000370: 4916 0bbb 6416 70ba 1ccd c03a 89e7 debb
00000380: 0ddd 473c 841c 1e3b e150 b0bc 6939 0abc
00000390: dd0e 533c 0cfd 07bc 59da 3fbb f70a 33ba
000003a0: b78d 2eb9 5ba4 a3bb cbd8 a5b4 cecf e9b3
000003b0: f894 93bc 34b6 4cbc 1691 d13a 496e 59ba
000003c0: dfae 26b9 a1a2 76bb 63c8 0a3c faa4 89bc
000003d0: 74db ea3b b9bf 98b9 0065 01bd 031a 8dbb
000003e0: d068 d8bb 7896 243c b544 e13b 85bc 18bc
000003f0: 91ce 903c 6286 e93b e2d0 8dbc 39b4 55bc
-0.009511611 -0.050369557 0.021909857 -0.02282591 0.0010273263 0.022015084 -0.04146396 0.036209863
0.002826432 0.010428123 2.7744835e-07 0.013853792 -0.0012309812 0.055793732 0.004174816 0.0321826
0.0010575325 -0.047328897 -0.020014716 -0.020364536 0.011330417 -0.02812982 -0.043674294 -0.029516723
-0.038591966 0.028718382 0.064687714 0.010458888 -0.0005339021 -0.041614797 0.0081344545 -0.0155172115
-0.0040834476 -0.012948081 -0.04309925 -0.04910976 0.00987795 -0.005678577 0.0006487201 0.023371724
0.012089989 -0.047648873 1.6323293e-07 3.1406904e-07 -0.010212676 0.04424552 0.004456917 -0.04599361
0.010234898 -0.0077965185 0.013941497 -0.033124033 -0.008783849 0.011809629 -0.0019280846 -0.03199805
-0.010725389 0.0063928626 0.013513301 -0.0487809 -0.0029274882 0.0014114904 -0.015686465 -0.009510126
-0.017941073 -0.043394446 0.0077994536 -0.0182233 -0.012351168 0.0069745546 -0.02666193 0.018000877
0.012285669 0.031128798 7.0883556e-07 0.00017881498 -0.013070554 0.023416426 -0.010562874 0.018150128
0.0050353105 -0.029701378 -0.022163197 -0.0037879907 0.0044443994 0.011273943 -0.030850306 -0.0021024274
-0.023701137 0.009154633 0.048039593 0.041420024 0.0018940746 -0.011358618 -0.0011863067 -0.016195446
0.014832498 -0.0056249993 -0.03060828 -0.02605078 0.011003915 -0.00597786 0.005254299 0.015355024
0.0034961929 -0.015885938 -2.0333401e-07 -4.3908446e-07 -0.019935204 0.024671623 -0.01780792 -0.029597454
0.017117202 -0.017758165 0.010453658 -0.016917117 -0.020716488 0.0117978295 -0.014926554 -0.005930763
0.004194054 0.023699151 0.010144075 -0.020007133 0.0155577585 -0.014289048 -0.006767803 -0.015542129
-0.012076547 -0.032745443 -0.019493155 -0.017747045 0.0014461798 -0.0015089321 -0.01801197 0.018662153
0.011447187 0.024202311 5.640736e-08 0.005569669 0.001355452 0.013938265 0.0034880089 -6.529421e-05
-0.0021931266 -0.020339606 -0.019288203 0.0015654874 -0.0051344014 0.0139361005 -0.027897082 -0.006643629
-0.018912094 0.012489227 0.05394699 0.034698088 -0.015464959 -0.015209222 0.004097872 -0.0068909074
0.01693113 -0.010389108 -0.038793422 -0.021897921 0.014655973 -0.007123698 0.010512718 0.014532441
-0.00045506755 -0.017202577 -2.7528017e-07 4.1737003e-08 -0.020430153 0.006827057 -0.003030468 -0.01922354
0.0012609708 -0.0030131598 0.019704008 -0.03215195 -0.002645605 0.0061294334 -0.023043117 -0.013820173
-0.02026677 0.013927766 0.004849802 -0.0144336345 0.015185255 0.004862713 -0.014102604 -0.010908111
-0.019340057 -0.0119889295 -0.043554734 0.0012938638 -0.0012859384 -0.0066665597 0.0036254737 0.017666271
0.0028836515 0.015847359 8.3125265e-08 0.0033104608 -0.001872764 0.0027078146 0.007116099 0.007547572
0.006416215 -0.0082680285 -0.004505913 0.0061146864 -0.017812045 0.0057131266 -0.016784383 0.0048113978
-0.008532085 -0.005684838 0.044102322 0.00087547634 -0.0021223 -0.000915861 0.0014709565 -0.0068025035
0.012198699 0.0024125883 -0.021522941 -0.008436539 0.012881962 -0.008300077 -0.0029274432 -0.0006829942
-0.00016646726 -0.004993958 -3.0891383e-07 -1.08877074e-07 -0.01801537 -0.0124946125 0.0015988674 -0.0008294327
-0.00015896138 -0.0037633555 0.0084706275 -0.0168023 0.007167274 -0.00029134544 -0.03159046 -0.0043060794
-0.0066042915 0.01004564 0.0068746456 -0.00932229 0.017676624 0.0071266154 -0.017311517 -0.013043457
