NLayerNeuralNetwork/multi_class_model_W1.npy (npy, 262272 bytes, 1 tensors)

array f4 [1024, 64]
0	0xbb493230	-0.003070008
1	0xbc380940	-0.011232674
2	0xbc5fe7b2	-0.01366608
3	0x344a6b53	1.885176e-07
4	0x38e40155	0.00010872135
5	0x3d1dfc0b	0.038570445
6	0xbc3a1f78	-0.011360042
7	0xbc25c2b3	-0.010117221
8	0x3c59a013	0.013282794
9	0x3d011bc1	0.03152061
10	0xbc65ec2d	-0.0140333595
11	0x34ed78ea	4.4232667e-07
12	0xb48ce4d0	-2.6243515e-07
13	0xbe02c570	-0.12770629
14	0x3d1561dc	0.03647028
15	0xbbd84a03	-0.0066006198
16	0x3510b514	5.3907684e-07
17	0xb49720e8	-2.8149884e-07
18	0xbc3c1a1d	-0.011480835
19	0xbc34744b	-0.0110140545
20	0x3bc659b2	0.006053173
21	0x3dd1d697	0.10246008
22	0xbba06cec	-0.004895797
23	0xbd959554	-0.07303873
24	0x3c954b34	0.018224336
25	0xb4a07cd7	-2.9893155e-07
26	0x34b89938	3.4384152e-07
27	0xb4b84943	-3.4325976e-07
28	0xb48f23db	-2.6661914e-07
29	0x3432baed	1.6645545e-07
30	0x3b822d45	0.0039726817
31	0x3d2d22fa	0.042269684
32	0x3cd390d8	0.025825903
33	0xbcf8904c	-0.030342244
34	0x34542153	1.9756162e-07
35	0x3ced3752	0.028957043
36	0xb5061e63	-4.996311e-07
37	0x3c441ad0	0.011969283
38	0x3bbf33f6	0.0058350516
39	0x3cde4099	0.027130412
40	0x3c7da42e	0.015481038
41	0x3cf2d244	0.029641278
42	0xbbcaac8e	-0.006185121
43	0x342abc7f	1.5901058e-07
44	0xb4633c98	-2.1163066e-07
45	0xb4bb828d	-3.4926452e-07
46	0x3d2319b5	0.039819438
47	0xbcbccbe1	-0.023046436
48	0xb5249840	-6.1316314e-07
49	0xbd0bab4e	-0.034098916
50	0xbd11e59e	-0.03561937
51	0xbc8969de	-0.016774114
52	0xb508437b	-5.0762145e-07
53	0xb5013312	-4.813056e-07
54	0xbc36613b	-0.01113158
55	0x3c7f69a3	0.015589151
56	0xbc3e057b	-0.011597986
57	0x33b52cdf	8.436631e-08
58	0xb4dab003	-4.073373e-07
59	0xbc90afd3	-0.017661965
60	0xbcb2e42e	-0.02183732
61	0x358eb29b	1.0631805e-06
62	0xbcc1d44a	-0.023660798
63	0xb54d4c06	-7.647908e-07
64	0xbc6644f3	-0.014054525
65	0xbc7272fb	-0.014797921
66	0xbc868c96	-0.016424458
67	0xb48cbe84	-2.621565e-07
68	0x3b1dd3b1	0.0024082477
69	0xbb2ddda5	-0.0026529816
70	0xbb8f27a7	-0.0043687406
71	0xbbd385bf	-0.0064551528
72	0x3cfbf4a0	0.030756295
73	0x3c524e18	0.012836002
74	0xbba88323	-0.005142586
75	0x344d9574	1.9146484e-07
76	0x34f1eb6b	4.5061037e-07
77	0xbdc94c6c	-0.098290294
78	0x3d1c2c49	0.03812817
79	0xbc8a7def	-0.016905753
80	0xb4daffd2	-4.0791798e-07
81	0xb47f6508	-2.378548e-07
82	0xbbe53eb6	-0.006996001
83	0xbc881dde	-0.016615804
84	0xbc7c9954	-0.015417416
85	0x3da1d7e5	0.07902507
86	0x3bab4446	0.0052266447
87	0xbd886b02	-0.06661035
88	0x3b007339	0.0019599928
89	0xb50b012d	-5.1783246e-07
90	0x3495140e	2.7768004e-07
91	0xb4bc85cb	-3.5115076e-07
92	0xb57e797d	-9.479916e-07
93	0xb3ab83ff	-7.986818e-08
94	0x3b156eb7	0.0022801587
95	0x3c0e20c4	0.008674804
96	0x3c2586b6	0.010102918
97	0xbc4499c7	-0.011999554
98	0x34977d7e	2.821725e-07
99	0x3c251c55	0.010077556
100	0x344aa23c	1.8871737e-07
101	0xbb2a9bc1	-0.0026032778
102	0x3c9755ab	0.018473467
103	0xba17cb4c	-0.00057904865
104	0xbc987f96	-0.018615525
105	0x3d1c7136	0.038193904
106	0xbcda0258	-0.026612446
107	0x34a84e2f	3.1349325e-07
108	0x350ad0f5	5.171308e-07
109	0xb3cc8fcb	-9.525646e-08
110	0x3cc89a74	0.024487711
111	0xbc05ec91	-0.008174078
112	0xb507229c	-5.034178e-07
113	0xbc9c25ea	-0.019061048
114	0xbd07a29b	-0.033114057
115	0xbc484e6a	-0.012225727
116	0x34189a8a	1.4212324e-07
117	0x33a355f7	7.605916e-08
118	0xbc75bb6b	-0.014998297
119	0xbc8a57d2	-0.01688758
120	0x3c8f18e9	0.017467933
121	0xb537c9e4	-6.84666e-07
122	0x34bfc87e	3.57224e-07
123	0xbcab37c1	-0.020900609
124	0xbb2e0b85	-0.002655716
125	0xb3e290fb	-1.0550317e-07
126	0xbc5ff526	-0.013669288
127	0xb38a8dac	-6.451896e-08
128	0xbba05990	-0.004893489
129	0x3aca92f9	0.0015455178
130	0xbb70a140	-0.0036717206
131	0x335b0e54	5.1002942e-08
132	0x3c45edd5	0.012080629
133	0xbc3f3338	-0.011669926
134	0x3bbca838	0.005757358
135	0xbc0d1a30	-0.008612201
136	0x3ca698d8	0.020336553
137	0x3bdf2c9f	0.006810739
138	0xbbe6a85b	-0.0070391125
139	0xb4a12b9e	-3.0020323e-07
140	0xb4d4d58f	-3.9643461e-07
141	0xbd09c9bc	-0.033639655
142	0x3d4cfb48	0.050044328
143	0xbc8d35b3	-0.01723752
144	0x34f1e63e	4.505727e-07
145	0xb40f8f9f	-1.3370162e-07
146	0x3ad9b834	0.0016610683
147	0xbcb50d0d	-0.02210095
148	0xbcbbc7f2	-0.02292249
149	0x3d8d25c8	0.06891972
150	0xbc35fd07	-0.01110769
151	0xbd57623b	-0.052583914
152	0xbc87e84d	-0.016590262
153	0x34133cb2	1.3712523e-07
154	0xb451261f	-1.947851e-07
155	0x34af804e	3.2689644e-07
156	0xb286a9b0	-1.5676818e-08
157	0xb5343e7e	-6.7146163e-07
158	0xbcacf40c	-0.021112464
159	0x3b92bfef	0.0044784467
160	0xbc2005a2	-0.009766968
161	0xbb922acd	-0.0044606687
162	0xb50e90f3	-5.311005e-07
163	0xbc326768	-0.010888912
164	0xb5067bd7	-5.00991e-07
165	0x3ca06599	0.019579696
166	0x3c9f65a7	0.019457651
167	0x3ba90898	0.005158495
168	0xbcf8ca22	-0.030369822
169	0xbc2083e3	-0.009797069
170	0xbcccb359	-0.024987863
171	0x33a057fa	7.4665834e-08
172	0x34111f4b	1.3515562e-07
173	0x34f8e7d4	4.6362277e-07
174	0x3c2fa2b4	0.010719944
175	0x3cec8068	0.028869823
176	0xb49fcac1	-2.976358e-07
177	0xbc849931	-0.016186329
178	0xbc95b3f9	-0.018274294
179	0xbc3f6759	-0.011682355
180	0xb51436c9	-5.521402e-07
181	0x34a9011b	3.1479507e-07
182	0xbcb3ea5c	-0.021962337
183	0xbc95bed4	-0.01827947
184	0x3c8342b7	0.016023023
185	0x34f8bb34	4.6329808e-07
186	0x3480f488	2.4019778e-07
187	0xbc161b6a	-0.009161809
188	0x3c67b57f	0.014142393
189	0xb4b2a024	-3.32716e-07
190	0xbba85bc2	-0.0051378915
191	0x3425eac5	1.5452231e-07
192	0x3ab136a8	0.0013520317
193	0xbbb59037	-0.0055408734
194	0x3c639405	0.013890271
195	0x351225f9	5.4444496e-07
196	0x3c4bf885	0.012449388
197	0x3cb7287b	0.02235817
198	0x3b6928aa	0.0035577216
199	0x3ae6846d	0.0017587073
200	0xbc8c82b6	-0.017152172
201	0x3c20a4dc	0.009804931
202	0xbbe454e7	-0.006968129
203	0xb535b1f3	-6.7686705e-07
204	0xb48eef81	-2.6623823e-07
205	0xbc131b67	-0.008978701
206	0x3d573a89	0.052546058
207	0xbc4055fe	-0.011739252
208	0x338841b6	6.344946e-08
209	0x32c1c887	2.2559346e-08
210	0xbc35b42d	-0.011090321
211	0x3bca2402	0.0061688432
212	0x3ae26ee6	0.0017275482
213	0x3da43346	0.08017592
214	0x3cb193ef	0.021676986
215	0xbd7a8090	-0.061157763
216	0xbcc4e996	-0.024037164
217	0x33a59222	7.7099926e-08
218	0xb454727c	-1.9785688e-07
219	0x34381057	1.714228e-07
220	0x351586e6	5.570313e-07
221	0xb3ff509d	-1.1889026e-07
222	0xbc0f72b4	-0.008755375
223	0x3bbde7cd	0.005795455
224	0xbc4cc538	-0.0124981925
225	0xbccdec35	-0.025137046
226	0xb44852bd	-1.8656552e-07
227	0xbca0af7b	-0.019614926
228	0xb4581688	-2.0124764e-07
229	0x3c8f28c3	0.017475491
230	0x3cf221a6	0.02955706
231	0x3c819a90	0.015820771
232	0xbc1c1575	-0.0095266
233	0xbc43bfca	-0.011947582
234	0xbcc0262a	-0.023455698
235	0xb4657eab	-2.1373368e-07
236	0xb38f5d87	-6.675969e-08
237	0xb102c44d	-1.9029074e-09
238	0xbc70abf7	-0.014689437
239	0x3d30b2de	0.04313933
240	0xb4778c3b	-2.3054683e-07
241	0x3bce1fb9	0.0062904027
242	0xbc800c5a	-0.01563089
243	0xbb8cd524	-0.0042978693
244	0xb4d19052	-3.903429e-07
245	0xb4981e42	-2.8334222e-07
246	0xbcbc74f2	-0.023004983
247	0xbb760864	-0.0037541622
248	0x3c7343d8	0.014847718
249	0xb4a7141f	-3.1120814e-07
250	0xb47b9899	-2.3431711e-07
251	0x3b2a2112	0.0025959653
252	0xbcbec2f2	-0.023286317
253	0xb48aaf62	-2.583211e-07
254	0xbc7cfafe	-0.015440701
255	0x340f53cd	1.33484e-07
