NLayerNeuralNetwork/multi_class_model_W2.npy (npy, 2688 bytes, 1 tensors)

array f4 [64, 10]
00000000: b448 9938 9a7d 573c 0e68 7abb 52f9 5cbb
00000010: 858c f6bb c14c 28bc f141 39bc 6391 043b
00000020: 3514 3e3c 78c0 1a3c f0d9 c0bb a447 e13b
00000030: 2025 2fbb 8c38 453b 476e 64bc f833 b3bb
00000040: aac7 03bb a40a aabb 47cf 4c3c ac74 513c
00000050: e418 0fbc 8010 2abc a435 c13b ac84 323c
00000060: 9a42 de39 1663 da3b 25bc 11bc 5352 c23c
00000070: 896d 8dbc c18d 18bb 86bb c2b4 2565 cdb3
00000080: f679 a633 684f 9232 6f46 8734 e7ea 4934
00000090: 082b c4b3 ee41 d5b3 a83d 8c35 84cb 8ab4
000000a0: 12fb 823c f484 523c a7bf 05bc b937 2dbc
000000b0: 9785 3a3a 9e01 caba 4eeb 45bb e2ff 19bc
000000c0: e2e6 a03b a91e e7ba 3d52 83bb aa8e 943b
000000d0: 1e24 83bc 92bd b73a f0fa 33bb 7c84 b6ba
000000e0: c677 47bc 76de 683c e6dc 0e3c e086 f43b
000000f0: 97ed 02bc 799b a23c c9b2 c1bb 5cbd 053b
00000100: 3254 fcbb cfe3 293b 9cdc 5bbc fe9d aebb
00000110: dbdb 883b 4097 3f3c 69c8 cfbb 9a92 86bc
00000120: 4ff0 b03b 82d6 393b 5c0a 8dba 6526 403c
00000130: 21ab 1e3b 9ccc 413c df84 0abc 72fb faba
00000140: e007 45ba ce05 973b a641 95ba 3b79 483c
00000150: f7f2 10bc c378 043c ee31 303c 7003 ac3b
00000160: 72c4 dabc 78c6 64bb 00d8 5fbc b1d9 0ebc
00000170: 4ae2 a83b c825 553c 2479 c2bb b402 9e3a
00000180: b060 2c3b 3f23 453c 0fa9 d23b 10fa 46bc
00000190: 558c 6cbb 23b5 44bc a6fb 9c3b 138c 583c
000001a0: 2ddb c0bb 4a89 193c f44a c0bb 8242 603c
000001b0: c896 4cbc d9a8 9eba 0859 ad34 35ac 8eb4
000001c0: fdb4 a934 4921 3333 565f 68b4 fb3a 9d34
000001d0: aa8e 9fb4 7f0d e8b4 44f4 0cb4 cfa6 6134
000001e0: ff1e a934 98bd 5134 c6a9 aeb3 85f0 b3b4
000001f0: 3b35 9d34 cfe6 35b5 a434 44b5 a844 0435
00000200: 03e9 9cb4 50e6 e5b4 ed0d 933a d36a c73b
00000210: 60eb 7ebb 1078 db3b 4a97 443c b0fc b83b
00000220: af2c acbb 60eb a339 0832 7fbc 8c05 eabb
00000230: a994 52bc c2d7 643b e57d 14bb c895 863a
00000240: 2fe2 1cbc 3d14 703c 4b40 e03b 3cfa 7e3b
00000250: a8ca 81bc 3634 2e3c f4ff 7bbc a738 723b
00000260: b628 22bc c256 b73b 22c0 e6bb 7230 3e3c
00000270: 5344 d33b 2576 5f3c a5b0 85bc 5ec9 fa3b
00000280: bd47 3235 88f0 5234 1dfc 2834 fa25 de34
00000290: f10f 01b3 cdb4 2c35 d896 e733 8327 fcb4
000002a0: 663c 8f34 0954 8fb4 5761 01b2 c8d4 91b2
000002b0: 4f57 af33 55c3 b033 2ae1 91b4 e2d2 1c34
000002c0: 4970 1ab5 99ee bb34 cc3b 6c34 3bc8 9cb4
000002d0: 68e4 06bc e31e 13bc bd89 1bba f9fd 5e3c
000002e0: ad1f 25bb 0046 1ab9 9a97 343a f894 d73a
000002f0: 3d07 8e3c e7dd 51bc 6132 42bb 3445 353a
00000300: 20b6 08bc f0b8 8c39 9fdd a3ba ea3f 5cbb
00000310: 7492 59bc 0bf9 a13b 0c48 dd3b 8e83 873c
00000320: 62cd 473c 42bc 373c 4c1a 8cbb dd35 39bc
00000330: 0138 b5bb 23ab a1bb 24d2 80bc 846d 153c
00000340: 17d0 a83b 28de 853b ae92 f6ba 50af 943b
00000350: 594c 16bc 2867 f0ba c591 6fbb be9a 99bb
00000360: d2c8 6cbc 3fdd 433c 81ac 833c 4a52 4c3b
00000370: ca84 21bc 5dda 59bc 34a1 82ba 115b 0d3c
00000380: 9499 6b3b d02b 1f3c ca3a 963b bc3e aa3c
00000390: 6f61 b6bc 22fb 68ba 9eb2 8fbc ce19 d93b
000003a0: c583 a1bb 961d 0f3b 0a96 4ebb cc7a 073c
000003b0: 2900 f43a 9691 9b3c c226 83bc 299c 723b
000003c0: 6042 a33b cea5 cd3b 693e e6bb fa03 dcbb
000003d0: 34e6 9fbb 0f5f 46bc 2def 67bb f12e 2e3c
000003e0: 7cb3 3b3c 1cce 713a c0ba 91b4 b1ab deb4
000003f0: 3277 f734 3ed6 3635 ec69 ebb4 64d6 8034
7.3091505e-05 0.013152504 -0.0038208994 -0.0033717942 -0.0075240755 -0.010272206 -0.011307226 0.0020228259
0.011601497 0.009445302 -0.005885355 0.0068749953 -0.002672501 0.003009352 -0.013942308 -0.0054688416
-0.0020108023 -0.0051892567 0.012500591 0.012784164 -0.008733962 -0.0103799105 0.005896287 0.010895889
0.00042392762 0.006664644 -0.008894955 0.023720896 -0.017264144 -0.0023277851 -3.6271757e-07 -9.5644545e-08
7.752162e-08 1.7032747e-08 2.5196957e-07 1.8805041e-07 -9.1347886e-08 -9.930578e-08 1.0448757e-06 -2.585258e-07
0.01598886 0.012849081 -0.008163369 -0.010572367 0.00071152434 -0.0015411859 -0.0030200067 -0.009399386
0.004910336 -0.0017633039 -0.0040076063 0.0045336084 -0.016008433 0.0014018288 -0.0027462803 -0.0013924981
-0.012174552 0.014213195 0.0087196585 0.0074623674 -0.007991216 0.019849526 -0.0059112054 0.0020407056
-0.0077004666 0.0025923138 -0.013419297 -0.0053288927 0.0041765994 0.011693776 -0.0063410294 -0.016427327
0.0053997408 0.0028356616 -0.0010760534 0.011727904 0.0024210887 0.011828568 -0.0084545305 -0.0019148423
-0.0007516127 0.0046088463 -0.0011387363 0.012235935 -0.00884699 0.008085432 0.010754092 0.005249433
-0.026705 -0.0034908336 -0.013662338 -0.008718894 0.005153929 0.013009496 -0.0059348512 0.0012055249
0.0026302747 0.012032329 0.0064288448 -0.0121445805 -0.0036094387 -0.012006077 0.004790741 0.01321699
-0.005885503 0.009371111 -0.00586831 0.013687732 -0.012487121 -0.0012104764 3.228854e-07 -2.6574858e-07
3.161039e-07 4.1706958e-08 -2.1641367e-07 2.9286443e-07 -2.971986e-07 -4.3223187e-07 -1.312738e-07 2.1015443e-07
3.1501256e-07 1.9533616e-07 -8.133388e-08 -3.351635e-07 2.928226e-07 -6.7763625e-07 -7.309229e-07 4.927374e-07
-2.9226803e-07 -4.2822148e-07 0.001121936 0.0060857325 -0.0038897619 0.006697662 0.011998961 0.005645357
-0.00525435 0.0003126515 -0.015575893 -0.0071417745 -0.012852826 0.003491864 -0.0022658047 0.0010268027
-0.009575411 0.014653263 0.006843602 0.0038906476 -0.015843704 0.010632565 -0.015380848 0.0036960037
-0.009897402 0.005595059 -0.007041947 0.01160823 0.006447354 0.013639008 -0.016319582 0.0076533994
6.641456e-07 1.9645279e-07 1.5737938e-07 4.1378354e-07 -3.004965e-08 6.4338093e-07 1.0784214e-07 -4.6967406e-07
2.667977e-07 -2.669697e-07 -7.530921e-09 -1.6976983e-08 8.164954e-08 8.231169e-08 -2.7172183e-07 1.4605351e-07
-5.7532867e-07 3.5005067e-07 2.2000967e-07 -2.920295e-07 -0.008233167 -0.008979532 -0.00059333054 0.0136103565
-0.0025195882 -0.00014712662 0.00068890455 0.0016447594 0.017337436 -0.012809253 -0.002963208 0.0006914914
-0.008344203 0.0002684067 -0.0012501961 -0.0033607432 -0.013279546 0.0049430183 0.0067529734 0.016542222
0.012194963 0.011214318 -0.004275596 -0.011304346 -0.005530358 -0.004933731 -0.015725203 0.009120349
0.0051517594 0.004085321 -0.0018812025 0.0045375004 -0.009173476 -0.001834129 -0.0036555391 -0.004687636
-0.014452176 0.011954605 0.016073467 0.0031176978 -0.00985832 -0.013296691 -0.0009966255 0.008627669
0.0035949694 0.009715036 0.004584645 0.020781867 -0.022263257 -0.00088875194 -0.017541226 0.0066253906
-0.004929038 0.0021837703 -0.0031522536 0.008269023 0.001861577 0.01899032 -0.016009692 0.0037019348
0.0049822778 0.006275869 -0.007026483 -0.006714341 -0.0048797373 -0.012107625 -0.0035390363 0.010631309
0.011456367 0.0009224133 -2.7144233e-07 -4.1475644e-07 4.609406e-07 6.8112047e-07 -4.384923e-07 2.3997848e-07
